1_intro/5_CNN_layers_and_Feature_Visualization/saved_models/fashion_net_simple.pt (torch_old, 28727 bytes, 6 tensors)

conv1.weight f4 [10, 1, 3, 3]
00000000: 9d13 9dbd 0b9b a1be 1bf6 43be 22d5 d73e
00000010: 52b2 be3d 81c8 c1be db43 963e ba41 e93d
00000020: 3db1 74be df71 2a3b 3866 eebe 1e09 8abe
00000030: ff5b fbbd d6a5 94be c205 da3c 060c 8e3e
00000040: b33e b93d 2cf3 5fbe cfd4 bb3e 46ea 483f
00000050: 2214 083f 7c63 cd3e f63f 4e3e 4870 2d3e
00000060: abbe 213f 7f22 af3e 911f 1a3f 4af4 2bbe
00000070: 2399 3d3e f98d 8bbe 01ec 92be 4783 833e
00000080: fc57 1fbe 7075 f03d aa03 49bd 5a59 acbb
00000090: 1f41 8c3e 02c8 8ebe 360f 18be d79a e3be
000000a0: 3b08 90be ebba ea3e e5f6 94be 0321 0bbe
000000b0: 20c1 bd3e 0b68 0f3e a1e1 5b3e b688 9cbe
000000c0: bf2a 3a3e a31c 45be d540 ac3e 12d7 d73e
000000d0: 529b 81bd aaae 1b3e 324d a7be 145a 33be
000000e0: 6081 093e 0323 5fbe c903 313e c5cc b33d
000000f0: 1773 dfbc 2ba8 9cbe e5fd 703c d306 b93e
00000100: 286a 213f 298e 4d3e 270e fc3e a3d5 b93e
00000110: 58ad 253f 98c9 de3d 937b b23e f03b 6b3e
00000120: d0fe c13c abfd 013d a09d acbd 6848 0abe
00000130: fc61 d0bd 7e43 90be 7371 7cbe 4e8b 6c3e
00000140: e4e3 7cbe a114 bc3e 9f10 1d3f a92e ca3e
00000150: 223c aa3e 52f3 2b3f 5f9a 153f a4c2 893d
00000160: 5106 02bc b90d b13d
-0.076697566 -0.315636 -0.1913685 0.42154795 0.09311356 -0.37848285 0.29348645 0.113894895
-0.23895736 0.0026007814 -0.46562362 -0.2696008 -0.12273406 -0.29032773 0.026614074 0.27743548
0.09045162 -0.21870106 0.36685798 0.7848247 0.5315572 0.40114963 0.20141587 0.16937363
0.6318156 0.34206006 0.60204417 -0.16792408 0.18515448 -0.27256754 -0.28695682 0.25686094
-0.15560907 0.117411494 -0.04907576 -0.005259675 0.27393433 -0.2788697 -0.14849553 -0.4445407
-0.2813128 0.45845732 -0.29094616 -0.13586812 0.37061405 0.14004533 0.2147279 -0.30573052
0.18180369 -0.19249205 0.33643213 0.42156273 -0.06328453 0.15203348 -0.32676083 -0.17514831
0.13428259 -0.217907 0.172866 0.08779291 -0.027276559 -0.30597052 0.014708971 0.3613802
0.63052607 0.20073761 0.49229547 0.36295804 0.64717627 0.10878295 0.34859905 0.22972083
0.023681074 0.031736057 -0.08428502 -0.13504183 -0.10174939 -0.28176492 -0.24652652 0.23100016
-0.24696308 0.3673449 0.61353487 0.39488724 0.33249003 0.6716815 0.58438677 0.06726578
-0.007936076 0.086451955

conv1.bias f4 [10]
00000000: 300f 0d3e 016d 6f3e eb15 0c3e 0d3b e0bd
00000010: d81d 753e 7b29 f33d af90 8dbe e553 473e
00000020: e6e0 67be a148 5a3d
0.13775325 0.23381425 0.13680236 -0.10948763 0.23937166 0.11873146 -0.27649447 0.19465597
-0.22644386 0.05329192

conv2.weight f4 [20, 10, 3, 3]
00000000: e5ba 87bd 6323 2dbd 3d3c 8e3d f646 3dbc
00000010: b84d 6dbd 2c71 29bb 897c f93c c2f3 91bb
00000020: 3655 d63d 390d 823c a3f3 a8bd 677a 113e
00000030: 25c0 c5bc 685c b13d 90eb a53d 9707 193d
00000040: 9cd5 963d 818c e7bc 031a 203e 4a6f 5ebd
00000050: 2456 7bbd 74ac d83d 2300 7d3d 9d1c 003e
00000060: d1bf 91bc bd48 b03d 2a13 1d3e 58d1 9cbc
00000070: de94 b83c bd09 1fbd 105e 9cbb 1df1 a23d
00000080: dcb1 bc3d 6582 713d 729c b9bd bdbc c43c
00000090: 9728 863d 4f60 793d 8d95 4d3d bfdd bebb
000000a0: 2b97 88bd b312 c33d 9626 98bd f39c 013e
000000b0: 62dc d23d b784 7dbd 9a2c 86bd 27c7 403d
000000c0: 49c5 de3d 6ebf a0bc 3e69 313c 4fab c53d
000000d0: b69d fb3d 5388 44bb ebcf 883d e62d 47bb
000000e0: cd37 2bbd 0151 b93d 2320 c9bc d154 a93d
000000f0: d11d 583d 05bf c03d df9e 113d 394f eb3d
00000100: 8014 09bd 66a3 17bc d25d b03d c087 c23d
00000110: 7843 fe3b f44b 323e 05f9 10bd e5d2 2f3e
00000120: 1575 17bc 5b53 c03d 6615 873d 2b8e c6bd
00000130: ea99 80bd fffd b1bd eb17 aabd 9a12 46bc
00000140: 660c a3bd 1302 d23d f1b5 033d 75b6 64bd
00000150: 1d91 983d a74f b7bd 6d74 443d 59f7 463e
00000160: b542 2a3d 33aa 963d 200c 45be e9da 173b
00000170: bd78 3bbe 4f61 06be 8172 52bc a46d e3bd
00000180: 3777 96bc 47be 4b3c 2896 71bd 657a dabd
00000190: 459d 41bd 8b7a 4a3c 1fa6 9fbc b8b0 babd
000001a0: 18d9 17be ce34 c5bd a9d9 15bd 2b9d cebd
000001b0: d7cb 2d3e e185 673e abc3 5d3e ef7d 833e
000001c0: 7ba0 eb3d c939 883d 5704 033d e384 263e
000001d0: 3749 773d 84af 553c 3248 02bd f154 313c
000001e0: 516b cfbb 0b6f 173c 0904 38bd 9180 9fbd
000001f0: 0cad fb3c fc32 febc cd35 6ebd dc14 dfbc
00000200: 77c5 0cbe 9791 4a3d cb09 d7bd 5ad9 08be
00000210: a384 e6bd a3e4 41be 85c0 b1bd b943 d73d
00000220: 3c11 023c 384e 943c 81d6 f8bc 14fd a13d
00000230: 882d 8abd e267 79bd 18ef 96bd 3bf0 acbc
00000240: b181 713d ab7b 3d3d 74fd 863c f626 b4bc
00000250: a6a4 68bd b1fe 6d3c e0a1 583d 9a88 dd3a
00000260: f356 e5ba 2eef 443e 81e0 e63d 09a0 323e
00000270: 2e9f 313d 7152 2f3e 5f3c 363d 3750 ac3d
00000280: 8891 f83d 6c71 fa3c b3d4 313d 0c62 bebd
00000290: a0a5 50bc 7b53 ac3d da8f 9e3d 2b66 afbd
000002a0: 8ef8 d5bd a86e 5f3c 0d21 a9bc 18bf 333e
000002b0: b6f4 193d 5665 bb3d 39a6 1e3e b2ad 8dbc
000002c0: 70cb b83d 4b48 7c3c 7d28 d83d fb8a 60bd
000002d0: 8105 11bd e8fc 9bbd 056a a4bd f81a 473d
000002e0: 0d4e 92bd 65af 5cbb 267c 83bd 4f2e 17bd
000002f0: 8637 d03d 25ae 4c38 b1aa 9cbd 7c8d 71bd
00000300: 6283 463d 8201 2fbd 3a89 27bd 0b27 f5bc
00000310: 5d56 fa3c 4855 8fbd c50a b2bd cab8 313d
00000320: 8b59 2d3d db59 e6bc 5796 353d 9ced 073b
00000330: 4d19 c53d 5eb2 aabc 457f bb3c a577 a1bd
00000340: 6f24 78bd d755 1f3d e946 ab3d bdb0 b8bd
00000350: 6b37 b0ba 42a7 ba3b ee4c 843d 04d2 7ebd
00000360: d738 95bd 1d3a 07bd 30c2 a1bb 0a28 593b
00000370: 788c 87bc 0d73 213d e815 933d 918c 923d
00000380: 14c8 c53d f173 6f3c b2fd a3bc 814f 03bc
00000390: 7205 39bd 9785 d5bb 168f a5bd 226e c83c
000003a0: dc9a 573d e8e5 cabd 4f55 4c3d 5085 d73c
000003b0: 2ef0 ac3d 792e db3c 4851 d43b fc7f 8abd
000003c0: 402a 673c dd5b 0bbd fefc 6e3d fe29 17bd
000003d0: d287 adbd 087e b7bd 75e2 76bc ae41 d5bb
000003e0: d80a d43d 433f 89bd 931c 533c 013b bbbd
000003f0: 8044 183b da17 97bd c061 91bd 0022 c1bc
-0.06627444 -0.042270076 0.06945083 -0.011552563 -0.057935447 -0.002585481 0.03045489 -0.004454107
0.104654714 0.015875446 -0.08249595 0.14206849 -0.024139473 0.08660203 0.081015706 0.037360754
0.073649615 -0.02826524 0.15634923 -0.054305352 -0.061361447 0.10579768 0.06176771 0.12510915
-0.01779166 0.08607624 0.15339342 -0.019142792 0.022531923 -0.038827647 -0.0047719553 0.07956145
0.092136115 0.058962245 -0.09063043 0.024015779 0.06550711 0.060882863 0.05019145 -0.005824774
-0.06669458 0.09525051 -0.07429235 0.12657528 0.10295941 -0.061894145 -0.06551476 0.047064926
0.10877473 -0.01962253 0.010828314 0.09651815 0.1228594 -0.0029988482 0.06680282 -0.0030392348
-0.041801263 0.090486534 -0.024551457 0.082681306 0.05276281 0.09411434 0.035551902 0.1148972
-0.033466816 -0.009255266 0.08611645 0.094985485 0.0077595077 0.17411786 -0.035393734 0.17170294
-0.009244223 0.09390899 0.06595878 -0.09695085 -0.06279357 -0.08691024 -0.08305343 -0.012089396
-0.07961349 0.10254302 0.032155935 -0.055838067 0.07449553 -0.08950739 0.047962595 0.19430293
0.041567523 0.07356682 -0.19242907 0.0023171252 -0.18307777 -0.13123058 -0.012844683 -0.11104897
-0.018367393 0.012435502 -0.05898109 -0.10667876 -0.047269125 0.012358318 -0.019488392 -0.09115738
-0.14828908 -0.09629212 -0.03658453 -0.10088571 0.1697229 0.22609664 0.21656673 0.25682017
0.115052186 0.06651647 0.03198656 0.1626163 0.060372557 0.0130423345 -0.031807132 0.010823474
-0.006329932 0.009242783 -0.044925723 -0.07788194 0.030722164 -0.03103017 -0.058156777 -0.027231626
-0.13747202 0.04945525 -0.10499915 -0.13364163 -0.11255767 -0.18934874 -0.08679298 0.10510964
0.007938679 0.018103704 -0.030375721 0.07909599 -0.06746966 -0.060890086 -0.07369822 -0.021110645
0.058961574 0.046260517 0.016478278 -0.021991234 -0.056797646 0.014526055 0.05288875 0.0016901672
-0.0017497226 0.19231865 0.112732895 0.17443861 0.043364696 0.17121293 0.044491168 0.08413737
0.12137133 0.030571662 0.043415736 -0.09296045 -0.012734801 0.0841436 0.07742281 -0.08564409
-0.10447799 0.013637222 -0.020645643 0.17553365 0.03758689 0.09150188 0.15493096 -0.017294738
0.090231776 0.015398095 0.105545975 -0.054820042 -0.03540564 -0.076165974 -0.08028034 0.048609704
-0.07143793 -0.003367388 -0.06420164 -0.036909398 0.1016684 4.8799575e-05 -0.07649744 -0.05897282
0.04846514 -0.042726047 -0.040902354 -0.029925844 0.03055876 -0.06998688 -0.086934604 0.04338912
0.042321723 -0.028119018 0.04433283 0.0020740991 0.09623966 -0.020837005 0.022887835 -0.078841485
-0.06058162 0.038900223 0.083631344 -0.09018085 -0.001344425 0.005696208 0.06459986 -0.062212005
-0.07286232 -0.033014406 -0.004936479 0.0033135437 -0.016546473 0.03941636 0.07181913 0.07155717
0.096573025 0.014615045 -0.020018432 -0.008014561 -0.04517121 -0.0065161693 -0.08083932 0.024466578
0.05263792 -0.099071324 0.049886044 0.026308686 0.08444248 0.026755558 0.006479416 -0.06762692
0.014109194 -0.034023155 0.05834674 -0.03690528 -0.08473171 -0.089595854 -0.01506864 -0.006508074
0.10353631 -0.06701519 0.012885231 -0.091421135 0.0023234189 -0.07377596 -0.070987225 -0.023575783

conv2.bias f4 [20]
00000000: 9a09 9dbc 8a4d d9bd fd73 be3d 62c7 023d
00000010: a502 69bd b0f3 cfbd 9209 553d c761 ad3c
00000020: b2b0 12bd 2832 9e3c 5d03 d43d 304d 7e3c
00000030: 4704 d23c b6f2 02bd f2c1 ae3d 5570 a23d
00000040: c5b8 a9bd 2d94 393d 6924 d1bd 752c 55bc
-0.019169617 -0.106104925 0.09299467 0.031928428 -0.056887288 -0.101539016 0.05201108 0.021164788
-0.03581304 0.019311026 0.10352204 0.015521333 0.025636805 -0.03196975 0.08533086 0.07931582
-0.08287195 0.045307327 -0.10212023 -0.013011088

fc1.weight f4 [10, 500]
00000000: db4c f5bc 8512 c43c 8e59 a2bb 17b1 003d
00000010: 7b1e 113d d92b 263d e92b 0c3c c947 a6bc
00000020: a7c4 263d 8cfd 54bc 9ec0 31bc 89f8 acbb
00000030: 7ab5 38bd 3ebe a83c 37ca 0dbd 456e bcbc
00000040: 9964 f23c 5d77 443c 41ed 023d 56ef 113d
00000050: 2f60 26bd 9e62 16bd ad8f 093d 5872 babc
00000060: e24b ccbb 91ef 2fbd 304c 99bc 4127 d23c
00000070: 7b13 e2ba 4bf2 25bd 7338 cdbb 08a5 18bd
00000080: bf78 a039 8834 853c 7d53 3fbc c32a 0f3d
00000090: 7a9d f8ba 6a56 85bb 9fb0 54bb a386 aabc
000000a0: f183 453c 0be4 003d 0726 23bd 013c 08bd
000000b0: 1e7b c43c 1ed2 23bd a501 72bc ceda e0bc
000000c0: 0f47 36bb ce30 273c cce6 92bc 2b0b 2c3b
000000d0: 70cc d7bc 7287 19bc 1041 2abd 327c 19ba
000000e0: 50f4 4abc df52 b53c 5c62 2abd 6d60 26bd
000000f0: a8c9 ddbc 19b9 763c 82de 093d a673 c2bc
00000100: 6003 df3c 9e45 c7bc 8776 2dbd 4a9a 2bbb
00000110: 2c8d 113d 4762 093d 77ac e7bc c03d 03bd
00000120: 4544 b8bc 7206 d2bc 9ba8 893c e8dd d5bb
00000130: 21ed 253d 2031 b3bc babe efbc a8d8 cc3b
00000140: d2b8 903c b01c ebbb 30f2 b5bb a8ee d0bb
00000150: 8a5e 1fbd a446 d0bc acb7 593c 009f f2bb
00000160: de4e e43c 1ab3 a9bc 7a38 9abc 5ed4 abbc
00000170: 7465 c1bc 0034 a6b8 8990 d8bc f297 f03c
00000180: 7021 543c a6dc 91bc a061 e53a 362f 823c
00000190: a966 2fbd 83d7 d43c 4534 95bc 381a 3f3b
000001a0: 0a95 863b 15fc c2bb 06c6 03bd ab2d d0bb
000001b0: 9352 233c 2391 5cbc 2c9e 2bbd f288 b83c
000001c0: 5da0 90bc 5128 503c f475 b5bc a129 7abc
000001d0: 3b42 1f3d 0624 533c 5c97 c63c 64d6 f63c
000001e0: 9ca0 26bd a9e6 0b3c 39a8 aebc 398f f83a
000001f0: 2ef8 afb9 0a05 c43c f033 863b 487c 673c
00000200: d4be 313c 5bf1 1f3d 884c ddbb 605b 0abd
00000210: a908 fcbc 7f8b 32bd b021 893c c8b5 5e3c
00000220: 60cd adbb f67c b63c c043 843b c401 14bc
00000230: e92c 1ebd 1206 20bd 1717 293d c222 23bd
00000240: c0cc e0ba 50c0 e9bc cd2a 053d 868e 01bd
00000250: bc77 0abd 7593 0f3d 9cea 2bbd 8b48 073d
00000260: 5740 273d 8235 13bd 42a3 ec3c e699 adbc
00000270: 8fbc 9bbc df2a f3bc 303f e63b e6d8 23bd
00000280: f088 71bb 587e bfbb 68e1 a4bb af78 173d
00000290: 53f8 0a3d b5e4 afbc 36c1 c1bc 87bc 323d
000002a0: bf05 b6bc 30bb 35bb cff7 2f3d 88d5 f6bb
000002b0: a199 95bc ec17 2bbd d9be 243d 89af 213d
000002c0: 885e 5abc d126 293d b9a3 28bd 76c6 813c
000002d0: 3313 a7bc 81da 863c 0e5a 51bb fbe7 143c
000002e0: 9783 d13c 48c7 3f3c ec01 e3bc a8ce 36bd
000002f0: e1ab 2d3c 01c7 18bd 66d0 993c 3f8d e33c
00000300: 6682 d83c a577 953c 6290 29bd c0ce 29bb
00000310: 4430 293c eeee fa3c 89cf 34bd d8c6 c7bc
00000320: a0c0 febb e075 10bd 5dc4 153d 26a8 c23c
00000330: 8120 1f3d 7675 12bd 4d9a bfbc 12e9 bf3c
00000340: e45a 043c ac88 7dbc 6d19 0e3d f845 b53b
00000350: b2ce 08bd fbba 0d3d 147e 1cbd 46ae c0bc
00000360: 4020 f5bb 069e b13c 6c81 20bc 4228 93bc
00000370: 1e43 d9bc 3369 e5bc 60e0 493b 32d0 c43c
00000380: a1a5 0abd a1a2 973a 5251 1d3d 3eec f23c
00000390: ce78 aebc 7ce1 9e3c e4be ec3b 08b8 2ebc
000003a0: dcc8 25bd cf8d 203d 34ca 8bbc 4eaa 52bc
000003b0: dcab de3c 947b 14bd c554 0e3d 3220 e1bc
000003c0: 56fa b7bc 1eba 4fbc 1d0f 2bbd b9d4 03bd
000003d0: fc3c 02bd 0d4e 193c 2694 a33c 6e22 013d
000003e0: 005f 96bc 29e7 4a3b d89c 2b3d 62b3 cbbc
000003f0: a6f5 893b c2a3 723c 0733 2fbd c126 f6bc
-0.029943874 0.023934612 -0.0049545234 0.031418886 0.03542946 0.04056916 0.008555391 -0.020297902
0.040714886 -0.012999903 -0.010849146 -0.005278651 -0.045094945 0.020598527 -0.034616675 -0.0230018
0.029588984 0.011991349 0.031964544 0.03562864 -0.04061907 -0.036715142 0.033584286 -0.022759601
-0.006234632 -0.042953078 -0.018713087 0.025653483 -0.0017248237 -0.04051427 -0.006262833 -0.03726676
0.0003060754 0.0162604 -0.01167762 0.03495289 -0.001896783 -0.0040691392 -0.0032453907 -0.020816153
0.012055383 0.03146748 -0.039831188 -0.03326035 0.023984488 -0.039995305 -0.0147709 -0.027448084
-0.002781335 0.010204507 -0.017932318 0.0026251774 -0.0263426 -0.009370672 -0.041565955 -0.00058549934
-0.01238735 0.022134243 -0.04159771 -0.040619303 -0.027073696 0.015058779 0.033659466 -0.023736786
0.027223289 -0.024325188 -0.042349365 -0.0026184493 0.035535023 0.03354099 -0.02828048 -0.03204131
-0.022493491 -0.025637839 0.01680403 -0.0065266974 0.040509347 -0.02187401 -0.02926575 0.0062514134
0.017666254 -0.0071750507 -0.0055525526 -0.0063761063 -0.03890852 -0.02542431 0.01328842 -0.007404208
0.027869638 -0.020715285 -0.018825758 -0.020975288 -0.023607947 -7.9251826e-05 -0.026436107 0.029369328
0.012947425 -0.017805409 0.0017500408 0.015891653 -0.042822514 0.02598167 -0.0182134 0.0029159915
0.0041071223 -0.0059504607 -0.03217127 -0.0063531003 0.009968418 -0.013462338 -0.04189889 0.022526238
-0.017654592 0.012704925 -0.022150971 -0.015268714 0.03888152 0.012887007 0.024242096 0.030131526
-0.040680513 0.00853888 -0.02132045 0.0018963582 -0.0003356351 0.023928184 0.004095547 0.014128752
0.01084872 0.039048534 -0.006753508 -0.03377855 -0.030765848 -0.043590065 0.016739696 0.013593145
-0.0053040236 0.022276383 0.0040363967 -0.009033624 -0.03861705 -0.03906829 0.041281786 -0.03982807
-0.0017150864 -0.028534085 0.03251152 -0.03163006 -0.033805594 0.035052735 -0.041971788 0.033028167
0.040832844 -0.0359397 0.028886441 -0.021191549 -0.01901081 -0.029683528 0.0070265755 -0.040001772
-0.0036855303 -0.005843919 -0.0050317533 0.036980327 0.033928227 -0.02147136 -0.0236517 0.043636825
-0.022219537 -0.002772998 0.042960938 -0.007532779 -0.018261733 -0.04177086 0.04022107 0.039474044
-0.013328202 0.041296784 -0.041171763 0.015841704 -0.020394897 0.016461613 -0.0031944546 0.009088512
0.025575442 0.011705227 -0.027710877 -0.044630677 0.010600061 -0.03729916 0.01877613 0.027777312
0.026429366 0.018245528 -0.04139746 -0.0025910586 0.010326449 0.030631509 -0.044143233 -0.024386808
-0.0077744275 -0.035268664 0.03656422 0.02376182 0.038849358 -0.03575655 -0.023389006 0.023426566
0.008078311 -0.01547448 0.034692217 0.0055320226 -0.033400245 0.034602147 -0.038206175 -0.0235206
-0.007480651 0.021681797 -0.009796482 -0.017963532 -0.026521262 -0.028004264 0.0030803904 0.024025057
-0.033849362 0.0011568853 0.03840763 0.029653665 -0.021297839 0.019394629 0.0072249044 -0.010663994
-0.040474758 0.03919774 -0.017064191 -0.012857987 0.027181558 -0.036250666 0.03474881 -0.027481172
-0.022458237 -0.012678651 -0.04176246 -0.03218529 -0.03179644 0.009356988 0.019968104 0.031526975
-0.018355846 0.0030960536 0.041897625 -0.02486581 0.004210192 0.014809551 -0.042773273 -0.030047776

fc1.bias f4 [10]
00000000: 3673 2cbc f8b2 fabb 8ea7 ff3c a2cf d53d
00000010: 2a80 4abc 987e 873d d13b 033c fa56 8bbc
00000020: 2b72 f93c ec18 22bd
-0.010525515 -0.0076507293 0.031207826 0.104399934 -0.012359658 0.06615943 0.008009867 -0.017009247
0.030449947 -0.03957455
