1_intro/5_CNN_layers_and_Feature_Visualization/saved_models/fashion_net_ex.pt (torch_old, 111165 bytes, 8 tensors)

conv1.weight f4 [10, 1, 3, 3]
0	0x3e82200b	0.25415072
1	0x3ec3a484	0.38211453
2	0x3e362b01	0.17789842
3	0x3eee3d1b	0.46530995
4	0x3ed2bd4e	0.41160053
5	0xbe963c86	-0.2934305
6	0xbf1a1fe3	-0.60204905
7	0xbf55d285	-0.8352435
8	0x3cf8c717	0.030368371
9	0x3f02faf9	0.51164204
10	0x3e67daa8	0.22642004
11	0xbf68ff1d	-0.9101427
12	0x3f4267c5	0.7593959
13	0x3e7fbf7a	0.24975386
14	0xbf6e4019	-0.93066555
15	0xbd117b86	-0.03551819
16	0x3f57c7fd	0.8428953
17	0xbf285079	-0.6574779
18	0x3e99b939	0.30024126
19	0x3e12026f	0.14258741
20	0x3ec7038c	0.38869894
21	0xbf3e887c	-0.7442701
22	0x3f16990f	0.588273
23	0x3e947d03	0.29001626
24	0xbf1c8857	-0.6114554
25	0x3e991fcb	0.2990707
26	0x3deeb3ed	0.11655412
27	0xbe97c665	-0.2964355
28	0x3e76cd90	0.24101853
29	0x3e07732d	0.1322753
30	0xbe011f05	-0.1260949
31	0xbea280f6	-0.31739014
32	0x3d8177f0	0.063217044
33	0x3c524d7d	0.012835857
34	0x3e3fc94f	0.18729137
35	0xbe4a1d4b	-0.19737737
36	0x3dd356ba	0.10319276
37	0x3ea39d70	0.31956053
38	0x3bd7163e	0.006563931
39	0x3ef35419	0.475251
40	0x3ee819b5	0.45332113
41	0x3e5636e1	0.20919372
42	0x3f3874a3	0.72052974
43	0x3ef51507	0.47867605
44	0x3e7e2f0c	0.24822634
45	0xbeb6a3e9	-0.3567193
46	0xbee997fa	-0.4562376
47	0xbfc9d4eb	-1.5768102
48	0x3d8b8e1c	0.068142146
49	0xbf55cfff	-0.835205
50	0xbfc6933c	-1.5513682
51	0x3ee9d2a8	0.4566853
52	0xbcb13674	-0.02163241
53	0xbf1827c2	-0.59435666
54	0x3d33ad80	0.043866634
55	0x3f584c1d	0.8449114
56	0x3f0e4b94	0.55584073
57	0xbf274129	-0.653338
58	0x3f2184c4	0.6309321
59	0x3e86183a	0.26190358
60	0xbf0dbbc0	-0.5536461
61	0x3f3779dd	0.71670324
62	0x3e689ba2	0.22715619
63	0x3efe5b14	0.49678862
64	0xbf3c5939	-0.7357364
65	0x3e8f2a42	0.27961928
66	0x3f6170cf	0.8806276
67	0xbf8abd00	-1.0838928
68	0x3e55b8a2	0.20871213
69	0x3f2b4d62	0.6691495
70	0xbf7ed41b	-0.995424
71	0x3ea87389	0.32900646
72	0xbee3186b	-0.44354567
73	0xbf3b2484	-0.73102593
74	0xbf5b103e	-0.8557166
75	0xbf1b3c13	-0.6063854
76	0xbf407540	-0.7517891
77	0xbf8718d3	-1.0554451
78	0x3eb009ee	0.34382576
79	0xbe39d1d6	-0.18146452
80	0x3d53de70	0.051725805
81	0xbf345215	-0.7043775
82	0xbf3a9c3f	-0.7289466
83	0xbe9ce2fe	-0.3064193
84	0xbe0a32a3	-0.13495879
85	0xbf307222	-0.6892415
86	0x3f16c484	0.5889361
87	0x3f175004	0.5910647
88	0x3e6dde44	0.23229319
89	0x3f03eac5	0.51530105

conv1.bias f4 [10]
0	0x3e234212	0.15943173
1	0xbc6ceff8	-0.01446151
2	0xbba1eb25	-0.0049413615
3	0xbe83997c	-0.25703037
4	0xbbb9f0d7	-0.0056744623
5	0x3f01b4b8	0.5066638
6	0xbb400073	-0.0029297143
7	0xbc866d4b	-0.016409537
8	0x3eb3376a	0.35003215
9	0x3f00bfdf	0.5029277

conv2.weight f4 [20, 10, 3, 3]
0	0xbe038110	-0.12842202
1	0xbe2021aa	-0.15637842
2	0x3d0477fa	0.03234098
3	0x3d83f57d	0.064433075
4	0xba9f0fad	-0.0012135409
5	0x3b819aa5	0.0039552026
6	0x3e432838	0.19058311
7	0x3e9232ba	0.28554326
8	0xbc48e59d	-0.012261775
9	0x3e44598f	0.19174789
10	0xbe822214	-0.25416625
11	0xbe11e6ed	-0.14248247
12	0xbe0a9818	-0.13534582
13	0xbd0fa5c3	-0.035070192
14	0xbd3c1ea3	-0.045927655
15	0xbe3220b7	-0.17395292
16	0x3d2798be	0.04091715
17	0xbd76479f	-0.060126897
18	0xbeb11eab	-0.3459371
19	0xbe263e20	-0.16234636
20	0xbe7af23b	-0.24506466
21	0xbd1462d3	-0.03622706
22	0x3e0235c7	0.12715827
23	0x3da06d21	0.07833315
24	0x3e27dd06	0.16392908
25	0x3c030c78	0.007998578
26	0x3c81a91e	0.015827712
27	0xbc4b4044	-0.012405459
28	0x3d2f0cd4	0.042736843
29	0x3dd8b675	0.10581676
30	0xbd249dc0	-0.040189505
31	0xbd9d9f1d	-0.07696364
32	0xbdce6cbc	-0.10079333
33	0x3db1d90e	0.08683978
34	0xb9d329e6	-0.00040276273
35	0x3c9cf869	0.01916142
36	0xbf07032e	-0.52739227
37	0xbebf1a1d	-0.3732461
38	0xbe65d66e	-0.2244508
39	0x3e43129c	0.19050068
40	0x3e63ebff	0.22257994
41	0x3ce12ee1	0.027488174
42	0x3f03a89c	0.5142915
43	0x3f11a14a	0.5688673
44	0x3d38fb5e	0.045161597
45	0x3eb5be8e	0.35496944
46	0x3e08a533	0.13344269
47	0xbe4db009	-0.20086683
48	0xbcfe03f4	-0.031007744
49	0xbe1749d0	-0.14774251
50	0xbe601341	-0.21882345
51	0xbeb1c70b	-0.3472217
52	0xbe7fcc69	-0.2498032
53	0xbe1c13e8	-0.15241969
54	0xbf111dd4	-0.5668614
55	0xbedd4422	-0.43216044
56	0xbe923453	-0.28555545
57	0x3d19b57b	0.03752659
58	0x3e204748	0.15652192
59	0x3e4ec124	0.20190865
60	0x3e9c68de	0.30548757
61	0x3e4e335d	0.20136781
62	0xbd9720f1	-0.0737933
63	0x3e7970b3	0.24359398
64	0x3d44adf4	0.048017457
65	0xbe366f65	-0.17815931
66	0xbb20efef	-0.0024557074
67	0x3d225d69	0.039639864
68	0xbd71e66f	-0.05905765
69	0xbddac7e0	-0.106826544
70	0x3d177383	0.036975395
71	0xbbc19265	-0.005907344
72	0x3deb771a	0.11497326
73	0x3e7cd537	0.2469071
74	0xbd0ad0cc	-0.03389053
75	0x3dfebeaa	0.1243871
76	0xbc7682d1	-0.0150458375
77	0xbe0edf98	-0.13952482
78	0xbdf61816	-0.12016313
79	0xbd9c0008	-0.076171935
80	0xbe238333	-0.15968017
81	0x3e0a9fc9	0.13537516
82	0x3ebb3553	0.3656412
83	0x3e7c7dfb	0.24657433
84	0xbd9d802b	-0.07690462
85	0x3e6ac77f	0.22927664
86	0xbe0c05e9	-0.1367413
87	0x3da0f84e	0.0785986
88	0xbd38bc1a	-0.045101263
89	0xbdb52c0b	-0.08846291
90	0x3d22757e	0.03966283
91	0x3d51f662	0.05126036
92	0x3d923241	0.071384914
93	0xbbda2f80	-0.0066584945
94	0x3d410502	0.047123916
95	0xbc285a50	-0.010275438
96	0x3d1c67e6	0.038185023
97	0xbdcf957a	-0.10135932
98	0xbd4865cd	-0.04892521
99	0x3c645200	0.013935566
100	0xbcc462a8	-0.023972824
101	0x3d665816	0.05623635
102	0xbda71340	-0.081579685
103	0x3d31b19e	0.04338228
104	0xbdb415a4	-0.0879319
105	0x3d8d7501	0.06907082
106	0x3bd996e0	0.0066403
107	0xbd8ea102	-0.069643036
108	0xbdaba84e	-0.08381711
109	0x3ce47004	0.027885444
110	0xbd32ba71	-0.043634836
111	0xbd9cab68	-0.07649881
112	0x3cc9ca7c	0.024632685
113	0x3c061f00	0.008186102
114	0x3c3dfb30	0.011595532
115	0xbd569890	-0.05239159
116	0x3dd31627	0.103069596
117	0x3cf15754	0.029460587
118	0x3c983be4	0.018583246
119	0x3da107c3	0.078628086
120	0x3cd563bc	0.026048534
121	0xbce9edcc	-0.028555773
122	0x3c278948	0.0102256015
123	0xbd99714b	-0.07492312
124	0xbdb3a923	-0.08772495
125	0x3c5ba180	0.013405204
126	0xbd7824b8	-0.060581893
127	0xbd711569	-0.05885831
128	0xbdd1cd3d	-0.10244224
129	0xbdb65347	-0.08902603
130	0xbd6c1641	-0.05763841
131	0x3d72173e	0.059104197
132	0xb9198000	-0.00014638901
133	0x3c978780	0.018497229
134	0xbcd5516c	-0.026039802
135	0xbd509d02	-0.050930984
136	0xbdd5e58a	-0.10444172
137	0xbd94c29b	-0.072636805
138	0xbdcbab64	-0.099447995
139	0xbce9e934	-0.028553583
140	0xbb4cd0a0	-0.003125228
141	0x3c725d90	0.014792815
142	0xbcc307bc	-0.023807399
143	0xbd937fbe	-0.07202099
144	0x3d81bded	0.063350536
145	0xbd4c578f	-0.04988819
146	0xbc2e22a0	-0.010628372
147	0x3d3a5ffa	0.045501687
148	0xbd8cfb14	-0.06883827
149	0xbd9f3b00	-0.07774925
150	0xbd382c12	-0.044963904
151	0xbd244b6a	-0.040110983
152	0xbbf2c3d0	-0.0074085966
153	0x3c02ade8	0.007976033
154	0x3abdf900	0.0014493763
155	0x3d9cd211	0.076572545
156	0xbdc06546	-0.093943164
157	0x3d6c3ff2	0.05767817
158	0xbd7074c4	-0.058705106
159	0xbd0fa00a	-0.035064735
160	0xbc4783e8	-0.012177445
161	0xbdb479ed	-0.08812318
162	0xbd3c45d1	-0.04596502
163	0x3d01d606	0.03169825
164	0x3dd631d7	0.10458725
165	0x3ca44ce4	0.020056196
166	0x3ca9460c	0.020663284
167	0xbd064360	-0.032779098
168	0x3d82cb2f	0.063864104
169	0xbd5686ec	-0.052374765
170	0xbda263e7	-0.07929211
171	0xbc9f8c90	-0.019476205
172	0x3dc00613	0.093761586
173	0xbd4904dd	-0.049076904
174	0xbcfcab58	-0.030843422
175	0xbbf8ddb0	-0.0075947866
176	0xbd835662	-0.064129606
177	0x3d5535da	0.05205331
178	0xbda63b89	-0.08116824
179	0x3dcfbb51	0.1014315
180	0x3db1cc98	0.08681601
181	0x3e63a199	0.22229613
182	0x3e1a9057	0.15094124
183	0xbdff5056	-0.12466495
184	0x3e64c80b	0.22341935
185	0x3d2fae1f	0.042890664
186	0x3c4accb2	0.012377905
187	0x3e45814e	0.19287607
188	0x3eb5e03a	0.35522634
189	0xbe1a498d	-0.1506712
190	0x3e110484	0.14161879
191	0xbd9a093c	-0.075212926
192	0xbdb5a0f7	-0.08868592
193	0xbc5bdf56	-0.013419947
194	0x3c8803f6	0.016603451
195	0x3d075e13	0.0330487
196	0xbe33f973	-0.17575626
197	0xbeb608ba	-0.35553533
198	0x3e040b23	0.12894873
199	0x3e1e014c	0.15430182
200	0xbdaf030d	-0.08545504
201	0x3cd90fc0	0.026496768
202	0x3e8eeff1	0.27917436
203	0x3e07cc3e	0.13261506
204	0xbe90ff2e	-0.28319687
205	0xbc8d8637	-0.017275913
206	0x3e30460c	0.17214221
207	0xbdb58568	-0.08863336
208	0xbdd14e55	-0.10220019
209	0x3dc05083	0.093903564
210	0xbcc0e054	-0.023544468
211	0xbdc01e0d	-0.09380732
212	0x3d267a7e	0.04064416
213	0x3c6e2597	0.014535329
214	0xbd33a5b5	-0.043859202
215	0x3b62fa05	0.0034633887
216	0x3e03c908	0.12869656
217	0x3ee9a9e2	0.45637423
218	0x3e7652a1	0.24054958
219	0xbe0ba15b	-0.13635771
220	0x3c977af5	0.018491248
221	0x3e84d8fb	0.25946793
222	0xbe672712	-0.22573498
223	0xbf147092	-0.5798427
224	0xbcabf648	-0.02099146
225	0xbdd52b4a	-0.10408647
226	0xbd8687ad	-0.06568847
227	0xbdf591e6	-0.119907185
228	0x3dffa575	0.1248273
229	0x3dab13a4	0.083533555
230	0xbe2a8111	-0.16650797
231	0x3d9aa089	0.07550151
232	0x3d8b1c15	0.067924656
233	0xbe24c793	-0.16091757
234	0x3e9431ab	0.28944144
235	0x3e90feeb	0.28319487
236	0xbc4b983c	-0.012426432
237	0xbd964a8a	-0.07338436
238	0x3e41383c	0.18869108
239	0xbd8b35a5	-0.06797341
240	0xbedb89c6	-0.4287855
241	0xbe822772	-0.2542072
242	0xbe217a26	-0.15769252
243	0xbe476653	-0.19472627
244	0xbe409e5c	-0.1881041
245	0x3e19a922	0.15005925
246	0xbe033236	-0.12812123
247	0x3d081c02	0.033229835
248	0x3d095809	0.033531222
249	0xbe55e4f9	-0.20888127
250	0xbcb82c76	-0.022482138
251	0xbe18327a	-0.14863005
252	0xbdec64ba	-0.115426496
253	0xbd4dca60	-0.050241828
254	0xbd8c45be	-0.0684924
255	0x3dc88001	0.0979004

conv2.bias f4 [20]
0	0xbd605a1f	-0.054773446
1	0xbd92b72f	-0.07163846
2	0xbd8c3875	-0.06846706
3	0x3d80f666	0.06296997
4	0x3c0040df	0.0078279665
5	0xbec7bdb3	-0.39011917
6	0x3da171bc	0.07883021
7	0x3e031efd	0.1280479
8	0x3e031e8a	0.12804618
9	0xbe2e3111	-0.17010905
10	0xbdcb88d3	-0.099382065
11	0xbd54278d	-0.05179553
12	0xbe2a8f3b	-0.166562
13	0xbba00eba	-0.004884568
14	0x3dbb7d21	0.09154726
15	0x3f225f80	0.6342697
16	0xbd0cc83c	-0.034370646
17	0x3bcab3cc	0.0061859842
18	0xbcbb2676	-0.022845488
19	0x3eacd1d3	0.33753833

fc1.weight f4 [50, 500]
0	0x3d045a32	0.03231258
1	0x3d70fcb5	0.05883475
2	0xbb234e67	-0.0024918558
3	0xbd20b246	-0.039232515
4	0x3df3ab6c	0.118979305
5	0x3d0d3e45	0.034483213
6	0x3be29830	0.006915115
7	0xbd20f442	-0.039295442
8	0xbc09b8ce	-0.008405877
9	0xbca1c1ee	-0.019745793
10	0xbdc56fd4	-0.0964047
11	0x3d31d38e	0.043414645
12	0xbcca0e0c	-0.024664901
13	0xbd8279ae	-0.06370865
14	0xbce9bd30	-0.028532594
15	0x3d3edf34	0.04659958
16	0x3d54d159	0.051957462
17	0x3c4d45e0	0.0125288665
18	0xbcfc4140	-0.030792832
19	0xbd1d0ab9	-0.038340304
20	0xbc1c843b	-0.009553011
21	0x3d6cd950	0.057824433
22	0x3d4584df	0.04822242
23	0xbb1cef04	-0.0023946175
24	0x3d4a3737	0.049369063
25	0x3c22994c	0.009924244
26	0x3c69f49c	0.014279511
27	0x3d2a589f	0.041588422
28	0xbce4cc20	-0.027929366
29	0xbcc137dc	-0.023586206
30	0xbb028bf0	-0.0019919835
31	0x3d1fad27	0.03898349
32	0x3d33e1d3	0.043916535
33	0x3c4ed528	0.012624063
34	0xbcb64a09	-0.0222521
35	0xbcb10ff9	-0.021614062
36	0xbca6759f	-0.020319758
37	0x3d21573b	0.03938983
38	0xbd345add	-0.044031966
39	0x3c69819c	0.014252093
40	0x3ca8914a	0.020577092
41	0x3d297e71	0.04138035
42	0x3b0091b0	0.0019618087
43	0xbcc9804d	-0.024597311
44	0xbc970b9c	-0.018438153
45	0x3c005548	0.007832833
46	0xbcd9690e	-0.026539352
47	0xbd0da44e	-0.03458052
48	0x3b58fa00	0.0033107996
49	0x3c90b9dc	0.01766675
50	0xbc874a3e	-0.016514894
51	0x3d6b1ed6	0.057402454
52	0xbc53ad06	-0.01291967
53	0xbbcdf4d3	-0.006285289
54	0xbc64e703	-0.013971093
55	0x3aeaac8c	0.0017904206
56	0x3d37e2a9	0.044893894
57	0x3d409234	0.04701443
58	0x3d001ab8	0.03127548
59	0x3d33cf5d	0.04389893
60	0xbad13040	-0.0015959814
61	0xbc1850e6	-0.009296631
62	0xbd5d4bec	-0.054027483
63	0xbd8f42b0	-0.069951415
64	0xbc204f83	-0.009784582
65	0xbbc7fa0b	-0.0061028055
66	0x3cc61bc5	0.024183163
67	0xbce43f6f	-0.027862279
68	0xbd50c1f5	-0.05096622
69	0xbd2a08a8	-0.04151216
70	0x3d1624fc	0.036656365
71	0x3e06292f	0.13101648
72	0xbd8cc3a6	-0.068732545
73	0xbc8116e9	-0.015757995
74	0x3d891762	0.06693913
75	0x3caff87b	0.02148079
76	0xbd0937a9	-0.033500347
77	0x3b221e86	0.0024737432
78	0xbd320c66	-0.043468855
79	0x3cc4708e	0.023979452
80	0xbcb6b02b	-0.0223008
81	0xbcbb66b6	-0.022876125
82	0x3b514a70	0.0031935237
83	0xbc3d1f04	-0.011543039
84	0xbaf9840f	-0.0019036549
85	0x3b24f4a3	0.002517023
86	0xbd151b94	-0.036403254
87	0xbb1b4a51	-0.002369542
88	0x3c876243	0.016526347
89	0x3cf32510	0.029680759
90	0xbcb3796a	-0.02190848
91	0x3cd5b958	0.026089355
92	0xbd399218	-0.04530534
93	0xbc9b0c55	-0.018926779
94	0xbbd6a2a9	-0.0065501523
95	0x3d08fb83	0.033442985
96	0xbd35b610	-0.04436308
97	0xbcf8e6f4	-0.030383565
98	0xbcc964a9	-0.024584131
99	0x3cf64feb	0.030067405
100	0xbcc8f5fe	-0.02453136
101	0xbd4afe7b	-0.049559098
102	0xbafdc32e	-0.0019360536
103	0x3d93e69e	0.07221721
104	0xbd95827b	-0.07300278
105	0x3d7de6e5	0.061987776
106	0x3cddd13c	0.02707731
107	0x3cfb217c	0.030655615
108	0x3c3585cd	0.011079264
109	0xbd99b46e	-0.07505117
110	0xbd279ef3	-0.04092307
111	0x3d326a02	0.04355813
112	0x3cfe0173	0.03100655
113	0xbd6fdc42	-0.058559664
114	0xbe10a7ff	-0.14126585
115	0x3c9566cc	0.018237494
116	0xbc48c795	-0.012254615
117	0xbc474819	-0.0121631855
118	0xbd0185c3	-0.031621706
119	0xbc9678d4	-0.018368162
120	0x3c8e8f68	0.017402366
121	0x3cef7bd2	0.029233847
122	0x3b124e64	0.0022324556
123	0x3d2e57c9	0.042564187
124	0x3cd41b70	0.02589199
125	0x3d009500	0.031392097
126	0xbd87ac91	-0.06624711
127	0xbd9e79d8	-0.077380836
128	0x3d6fd0e3	0.05854882
129	0xbc80c228	-0.01571758
130	0x3ce1294b	0.02748551
131	0xbba507d5	-0.005036334
132	0xbcf4a4fa	-0.029863823
133	0xbcf2661f	-0.02958971
134	0x3c81ed37	0.015860183
135	0xbc368f2c	-0.011142533
136	0xbd338c19	-0.04383478
137	0x3c3ca82a	0.011514703
138	0x3d20ad99	0.039228056
139	0x3d2c17c1	0.04201484
140	0x3ac04ab2	0.0014670698
141	0xbd87c0d6	-0.066285774
142	0xbc533c46	-0.012892788
143	0xbbc6d15b	-0.0060674376
144	0x3d137470	0.035999715
145	0xbd2377a7	-0.03990903
146	0xbd418d99	-0.04725418
147	0xbcb844d3	-0.022493755
148	0x3d6ae931	0.057351295
149	0xbc6b1e6f	-0.014350518
150	0x3c1f4c6c	0.00972281
151	0x3c314654	0.01081999
152	0x3d219b10	0.03945452
153	0x3d08349d	0.0332533
154	0xbd4b8d7c	-0.049695477
155	0x3be08fdf	0.0068530883
156	0x3cfd8fc7	0.030952347
157	0x3c5e993b	0.013586338
158	0x3d023a50	0.031793892
159	0x3d12e71b	0.03586493
160	0x3d183174	0.037156537
161	0x3d64457f	0.05573034
162	0x3cec31a7	0.02883227
163	0xbbddea0b	-0.006772285
164	0x3d380ba4	0.044932976
165	0xbd6eedde	-0.058332317
166	0xbcae4a80	-0.021275759
167	0x3bcb6f4d	0.0062083364
168	0xbd0a2cb7	-0.03373405
169	0xbd4e2ed6	-0.050337635
170	0xbd74b1e6	-0.05973997
171	0x3d3b65bd	0.045751322
172	0xbcc5fef4	-0.024169423
173	0x3d0ea0f4	0.034821466
174	0xbd16bafb	-0.036799412
175	0x3c6c73b6	0.0144318845
176	0x3c3225a3	0.010873231
177	0x3d09882b	0.033577126
178	0xbd7e5a92	-0.062098093
179	0xbd160afe	-0.036631577
180	0xbd29f859	-0.04149661
181	0x3d09c7e0	0.03363788
182	0x3c21f35c	0.009884682
183	0xbcc7d875	-0.024395207
184	0xbced4508	-0.02896358
185	0xbcabc7d6	-0.020969313
186	0xbc01ac7e	-0.0079146605
187	0x3c2c8322	0.010529311
188	0xbcec2f96	-0.028831284
189	0xbd951194	-0.072787434
190	0x3c959501	0.018259527
191	0x3d0e8bd8	0.034801334
192	0x3c938d35	0.018011669
193	0xbd307b39	-0.043086264
194	0xbd44b3ff	-0.04802322
195	0x3c6823c4	0.014168683
196	0xbd15a4fd	-0.0365343
197	0x3d1d1710	0.038352072
198	0x3c178fb6	0.009250572
199	0x3b403385	0.0029327583
200	0xbbacc4e1	-0.005272493
201	0x3d6971db	0.056993347
202	0x3d1d707e	0.03843736
203	0x3c960f26	0.01831777
204	0xbd5fb670	-0.054617345
205	0xba014ec3	-0.0004932696
206	0xbd16ff03	-0.036864292
207	0x3db5ea5c	0.08882591
208	0x3c2d4f3d	0.010577974
209	0xbcd7dded	-0.02635094
210	0x3d32c410	0.04364401
211	0x3c270ac8	0.010195442
212	0x3c6e71d9	0.014553511
213	0xbce75094	-0.028236665
214	0x3d0077a6	0.031364106
215	0xbd276971	-0.04087204
216	0x3c4ac562	0.012376161
217	0x3cd1968d	0.025584484
218	0xbd0cde4e	-0.034391694
219	0xbc973f64	-0.018462844
220	0xbd216ae5	-0.039408583
221	0xbd115fd5	-0.035491783
222	0xbba5c8cc	-0.0050593372
223	0xbc9ce2ac	-0.019151054
224	0xbcfae142	-0.03062499
225	0x3d05f055	0.0326999
226	0xbc36cfaf	-0.011157914
227	0xbd366d34	-0.044537738
228	0x3e023dbb	0.12718861
229	0x3d3b9a4a	0.04580144
230	0x3c9f252c	0.019426905
231	0x3c593867	0.013258076
232	0x3c5360cd	0.012901497
233	0x3caada41	0.020856025
234	0xbd0d44b0	-0.034489334
235	0xbda48bc1	-0.080344684
236	0x3d2c8a6e	0.042124204
237	0xbd679843	-0.056541692
238	0xbd1ff066	-0.03904762
239	0xbd7e53db	-0.06209169
240	0xbd2bd3bb	-0.04194997
241	0x3d02136b	0.0317568
242	0xbccf5889	-0.025310772
243	0xbd2f5f7b	-0.042815667
244	0xbd1fc1dc	-0.039003238
245	0xbd45bd58	-0.048276275
246	0xbd44b853	-0.048027348
247	0x3ce23465	0.027612874
248	0xbc1a151d	-0.009404448
249	0xbc83ea10	-0.01610282
250	0x3c3eb6be	0.011640249
251	0xbdbccd6e	-0.0921887
252	0x3cbb9dd0	0.0229024
253	0x3dce0bd5	0.100608505
254	0x3c73cbad	0.014880103
255	0xbd14f59d	-0.036367048

fc1.bias f4 [50]
0	0xbc934bb7	-0.01798044
1	0xbd240950	-0.040047944
2	0x3d25e363	0.040500056
3	0x3d71a935	0.05899926
4	0x3cee05b5	0.029055456
5	0x3b84b01c	0.004049314
6	0x3de62c0e	0.112388715
7	0x3dbe312d	0.09286723
8	0xbc9232ad	-0.01784643
9	0x3df7b5d4	0.12095228
10	0xbd4a7e27	-0.049436715
11	0x3df33fb5	0.118773855
12	0x3e0a9603	0.13533787
13	0xbd0c3d11	-0.034237925
14	0x3cab5a6d	0.020917142
15	0xbcc94f29	-0.02457388
16	0x3dcc5feb	0.099792324
17	0x3d962ac5	0.073323764
18	0x3d47225b	0.04861675
19	0x3cc2ebdb	0.023794105
20	0xbd951d33	-0.0728096
21	0xbcafebec	-0.021474801
22	0x3d28c242	0.041200884
23	0x3db05678	0.086102426
24	0x3cf34e23	0.029700344
25	0x3d8b9381	0.068152435
26	0x3cbd6d9a	0.023123551
27	0xbc89bf92	-0.01681498
28	0x3c4a3986	0.012342816
29	0xbd455508	-0.048176795
30	0xbb982075	-0.004642541
31	0xb9db42ca	-0.00041820697
32	0x3d8c453b	0.06849142
33	0x3bb09e34	0.005389953
34	0xbc38edbd	-0.01128715
35	0x3d2e1c1a	0.04250727
36	0x3d7d3432	0.061817355
37	0x3daf2e17	0.08553713
38	0x3c9085c6	0.017641913
39	0x3d6eabcd	0.05826931
40	0xbc985128	-0.018593386
41	0x3c7fda56	0.01561602
42	0x3d0ff0b9	0.03514168
43	0x3d87152b	0.06595834
44	0x3c77e994	0.015131373
45	0xbd4eceee	-0.050490312
46	0xbb5f0665	-0.003403091
47	0x3d3bbcd5	0.04583438
48	0x3cd5239a	0.026017953
49	0x3d6fe957	0.05857214

fc2.weight f4 [10, 50]
0	0xbd985f66	-0.07440071
1	0x3eb62e3a	0.35582143
2	0x3e16592f	0.14682458
3	0x3eed6f82	0.46374136
4	0xbea6d352	-0.325831
5	0xbe97234e	-0.29519123
6	0x3e88d357	0.2672374
7	0x3ec94a31	0.39314416
8	0x3d690019	0.05688486
9	0xbe94be72	-0.29051548
10	0x3e77a69a	0.24184647
11	0x3e5fa738	0.21841133
12	0x3eaa96ee	0.33318275
13	0xbab7e173	-0.0014028981
14	0x3e54e280	0.20789528
15	0xbdf81ea8	-0.12115222
16	0x3ec872c4	0.3915006
17	0x3e264e4c	0.16240805
18	0x3da24794	0.07923809
19	0xbe995937	-0.29950878
20	0xbdf9bb13	-0.12193885
21	0x3e708fe7	0.23492394
22	0xbb3dbfd5	-0.0028953452
23	0x3eb96a3b	0.3621386
24	0xbd35d6a8	-0.044394165
25	0x3eda4a43	0.42634782
26	0xbdb329e8	-0.08748227
27	0xbe760f12	-0.24029186
28	0xbd32fcb8	-0.043698043
29	0x3e986d10	0.29770708
30	0xbe490035	-0.19628985
31	0x3e66b0bc	0.22528356
32	0xbe4cd810	-0.20004296
33	0xbd64e42f	-0.055881675
34	0xbd720958	-0.059090942
35	0x3eb19488	0.34683633
36	0x3db71451	0.08939422
37	0xbcec8b5f	-0.028875051
38	0xbd791c67	-0.060818102
39	0x3e95f7d7	0.2929065
40	0x3cf27e01	0.029601099
41	0xbe82c6af	-0.2554221
42	0x3e58c55f	0.21169041
43	0xbd539584	-0.05165626
44	0xbe34f3b8	-0.17671096
45	0x3e48b0d8	0.1959871
46	0xbdeababa	-0.114613965
47	0xbe1676c3	-0.14693742
48	0x3edfa87e	0.43683237
49	0x3e80dfb8	0.25170684
50	0x3dc6acf8	0.0970096
51	0xbeaee93a	-0.34162313
52	0xbe0aa4a3	-0.13539366
53	0x3ef03c35	0.46920934
54	0x3e53bb4a	0.20676914
55	0x3ea4d1c3	0.32191285
56	0x3edd7e9d	0.4326066
57	0xbe52070c	-0.205105
58	0xbe53d8b6	-0.20688137
59	0x3eea46c0	0.45757103
60	0xbe2debac	-0.16984433
61	0xbeb715a2	-0.35758692
62	0xbef88a0b	-0.48542818
63	0xbe4298ff	-0.19003676
64	0xbe08bd9e	-0.13353583
65	0xbd56fdbc	-0.052488074
66	0x3ec73591	0.38908055
67	0xbec57b9b	-0.38570866
68	0xbe4cf05c	-0.20013565
69	0xbe05c1fa	-0.13062277
70	0x3e7f7299	0.2494606
71	0xbe56cff9	-0.20977773
72	0xbda173ea	-0.07883437
73	0x3eab80a7	0.3349659
74	0x3ed60586	0.4180109
75	0x3eb31459	0.34976462
76	0xbe8a1618	-0.2696998
77	0x3e58af30	0.21160579
78	0x3ea43fb2	0.32079846
79	0xbe507707	-0.20357905
80	0xbe88b17b	-0.26697907
81	0x3caa8eea	0.0208201
82	0xbecd583b	-0.40106377
83	0x3efbf7c4	0.49212468
84	0xbe7e8697	-0.2485603
85	0xbf00c862	-0.5030576
86	0xbddaa2a5	-0.10675553
87	0x3e09492b	0.13406818
88	0xbd45c563	-0.048283946
89	0xbefbceff	-0.49181363
90	0xbdf8d91b	-0.121507846
91	0x3e63685a	0.22207776
92	0x3c4cf290	0.012509003
93	0xbe467998	-0.19382322
94	0xbef0a4a0	-0.470006
95	0x3d781118	0.060563177
96	0xbeb63242	-0.3558522
97	0x3e9efdee	0.31053108
98	0x3edb423f	0.4282398
99	0x3eb04e5d	0.34434786
100	0xbc99a4ad	-0.018755281
101	0x3ec184c0	0.37796593
102	0x3cd9632c	0.026536547
103	0xbe981f88	-0.29711556
104	0xbe5da918	-0.21646535
105	0xbe8f86e3	-0.28032598
106	0x3ed7b866	0.42132872
107	0x3ef313c5	0.4747602
108	0x3e583149	0.21112551
109	0x3eac79bc	0.33686626
110	0x3ea3d39f	0.31997392
111	0x3e8651bc	0.26234233
112	0x3ecbc72b	0.3980039
113	0xbe15363d	-0.14571472
114	0xbeaaf421	-0.3338938
115	0x3d9748ec	0.073869556
116	0x3ed0f7e7	0.40814134
117	0x3dbe4af5	0.09291641
118	0xbe8eda40	-0.27900887
119	0xbe76949b	-0.24080126
120	0xbe8cbdeb	-0.27488646
121	0xbe3af4b1	-0.18257405
122	0x3d966cd2	0.073449746
123	0xbec09e96	-0.3762099
124	0xbd7bbb45	-0.06145789
125	0xbdde2ab6	-0.1084799
126	0xbec9fe17	-0.39451668
127	0xbea17524	-0.31534684
128	0x3d516bcc	0.051128194
129	0x3eb2891d	0.34870234
130	0x3e987910	0.29779863
131	0x3eba2b8e	0.36361355
132	0xbe9abe76	-0.30223435
133	0x3e0d8132	0.13818815
134	0x3eb765ae	0.35819763
135	0xbd29f53d	-0.041493643
136	0x3ecd4a7c	0.4009589
137	0x3e56c970	0.2097528
138	0x3dd94af6	0.10610001
139	0x3ea9e6c8	0.33183885
140	0x3ead403b	0.33838066
141	0xbee2e5bf	-0.44315907
142	0xbec69e12	-0.38792473
143	0xbe4cd59f	-0.20003365
144	0x3e98cff7	0.29846165
145	0xbea91e56	-0.33030957
146	0xbeae0111	-0.3398519
147	0xbeaee97c	-0.3416251
148	0xbe4f8e52	-0.20269135
149	0x3df60fe4	0.1201475
150	0x3e2f02a0	0.17090845
151	0x3e985606	0.2975313
152	0xbd83d977	-0.064379625
153	0xbe6097d2	-0.21932915
154	0x3e78c7b3	0.24294929
155	0x3e783aff	0.24241255
156	0x3ecd41ac	0.40089166
157	0xbe73438e	-0.23756239
158	0xbe8a43b0	-0.27004766
159	0xbe9c4473	-0.30520973
160	0xbed3e7ba	-0.4138773
161	0xbee75fb6	-0.4519021
162	0x3e721fb1	0.23644902
163	0x3bb46765	0.0055054897
164	0xbeabd429	-0.33560303
165	0xbd75b349	-0.059985433
166	0x3ebd9aff	0.37032315
167	0xbe5175cd	-0.20455094
168	0xbe9d3fb8	-0.30712676
169	0x3e924ef1	0.28575853
170	0x3e5c5ed1	0.21520545
171	0x3e84280c	0.25811803
172	0xbd3dbe20	-0.046323895
173	0xbdf0d7a8	-0.11759883
174	0xbd8df508	-0.069315016
175	0x3ecfb486	0.40567416
176	0xbeb2db74	-0.34933054
177	0x3e825441	0.25454906
178	0x3e814562	0.25248247
179	0x3da0455b	0.078257285
180	0xbeb4e6ab	-0.35332236
181	0x3e9b1b22	0.30294138
182	0x3e8a8591	0.27055028
183	0xbdfd822c	-0.12378344
184	0xbe3616e2	-0.17782167
185	0xbe036c93	-0.12834387
186	0x3ebf26d4	0.3733431
187	0x3c446d5e	0.011988966
188	0xbbfbe00b	-0.00768662
189	0x3e99f680	0.30070877
190	0xbe9a2837	-0.30108806
191	0xbe389e47	-0.18029128
192	0xbe8c8d81	-0.2745171
193	0xbe60b1ef	-0.21942876
194	0x3e846514	0.25858366
195	0x3eb3b44f	0.35098502
196	0xbe4775a5	-0.19478472
197	0x3db1047d	0.08643434
198	0x3ecdbfbc	0.40185344
199	0xbe9674e9	-0.2938607
200	0x3e670263	0.22559504
201	0x3ec0e356	0.37673444
202	0xbbf4b29c	-0.007467581
203	0xbda10c93	-0.078637265
204	0xbeca24d5	-0.39481226
205	0x3d9c5872	0.07634057
206	0xbde785a5	-0.113047875
207	0xbdd5bfde	-0.104369864
208	0xbe6757b8	-0.22592056
209	0x3eaf1360	0.3419447
210	0x3ec533b6	0.38516015
211	0xbe1e5fc7	-0.15466224
212	0xbe3c98a5	-0.18417604
213	0x3e9d824b	0.30763468
214	0xbeae69bc	-0.34065044
215	0x3db7feb1	0.089841254
216	0x3ec65bd9	0.3874195
217	0xbeb52368	-0.35378575
218	0xbe9c29c5	-0.30500618
219	0x3dd1d23d	0.10245178
220	0x3e3dedf5	0.18547805
221	0x3e77cd3e	0.24199387
222	0x3db5b62a	0.08872636
223	0xbe2f17e6	-0.1709896
224	0xbe82de1d	-0.25560084
225	0xbe7d6e17	-0.24749027
226	0xbed6f6a2	-0.4198504
227	0xbe5578b2	-0.20846823
228	0x3e852639	0.26005724
229	0x3f002779	0.5006023
230	0x3e8ac191	0.27100804
231	0x3e8abc4a	0.27096778
232	0xbf0d4c45	-0.55194503
233	0xbe0dc91a	-0.13846245
234	0x3efcd035	0.493776
235	0xbd7cb9aa	-0.0617005
236	0x3ec9b4e4	0.3939582
237	0xbedb782d	-0.42865124
238	0x3d9d42d2	0.076787606
239	0xbd839940	-0.064257145
240	0x3eb74cf9	0.35800913
241	0x3e0476f1	0.12935998
242	0xbea11022	-0.3145762
243	0xbe6861b3	-0.2269352
244	0x3e8bac21	0.2727976
245	0xbdb962f3	-0.09052076
246	0x3de08859	0.10963506
247	0x3e63591c	0.22201961
248	0xbd7131fd	-0.058885563
249	0xbe9b4f25	-0.3033382
250	0xbe39a984	-0.18131071
251	0xbf206c58	-0.6266532
252	0xbb3aeef7	-0.0028523782
253	0xb9ce3319	-0.00039329453
254	0x3ececc5a	0.40390283
255	0xbe956a31	-0.2918258

fc2.bias f4 [10]
0	0x3e7b251f	0.2452588
1	0xbee8602d	-0.45385876
2	0x3e3ea4da	0.18617573
3	0x3e6dfe2b	0.23241489
4	0x3e8b158b	0.27164873
5	0xbc573e0d	-0.013137353
6	0x3f283fe9	0.6572252
7	0xbdb7e050	-0.08978331
8	0xbebd9d78	-0.37034202
9	0xbdd8aa7d	-0.10579393
